model.tflite (tflite, 388488 bytes, 8 tensors)

sequential/dense_3/MatMul f4 [8, 64]
0	0x3de89343	0.11356213
1	0xbd131966	-0.035912894
2	0xbeaf2d4f	-0.34214255
3	0x3e85cfb4	0.26135027
4	0x3cdc102a	0.026863176
5	0xbe7b9bd7	-0.24571167
6	0xbeb509e4	-0.35359108
7	0xbe8bc1ef	-0.27296397
8	0xbe00dfac	-0.12585324
9	0xbd230796	-0.039802156
10	0x3ea4d0ee	0.3219065
11	0xbe11c202	-0.14234164
12	0xbe785674	-0.24251729
13	0xbe2b5830	-0.1673286
14	0xbe923bbb	-0.28561196
15	0xbe8e2822	-0.27764994
16	0x3e8b1642	0.2716542
17	0xbe67bbf6	-0.22630295
18	0x3cb9d478	0.02268432
19	0xbe8ebd29	-0.27878693
20	0x3e99ccfc	0.30039203
21	0x3cdf0b60	0.027227104
22	0xbb5c86e5	-0.003364974
23	0x3de2a3b1	0.11066378
24	0x3e783057	0.2423719
25	0xbea855b4	-0.32877886
26	0xbe88a880	-0.26691055
27	0xbe298f65	-0.16558607
28	0xbebe307e	-0.37146372
29	0x3e7f626c	0.24939889
30	0xbeb63e14	-0.35594237
31	0xbe0fcf1a	-0.14043847
32	0xbdf263ed	-0.118354656
33	0xbe03b0fc	-0.12860483
34	0x3e30b596	0.1725677
35	0x3d2347da	0.039863445
36	0x3de5e074	0.11224452
37	0x3d1657f3	0.03670497
38	0x3e84eafb	0.25960526
39	0x3e46d1ba	0.19415942
40	0xbe2fab57	-0.17155205
41	0xbe76fc93	-0.24119787
42	0x3e858f6f	0.26085994
43	0x3e5c8170	0.21533751
44	0xbe9636df	-0.29338738
45	0x3cc04970	0.023472518
46	0xbe4ce9b8	-0.20011032
47	0xbea3bbe0	-0.31979275
48	0x3db3dc46	0.08782248
49	0x3dbfae65	0.09359435
50	0x3df92e56	0.12167041
51	0x3e168e0d	0.14702626
52	0x3e3d48d6	0.18484816
53	0x3e1101df	0.1416087
54	0x3e899bcc	0.26876676
55	0xbdf946a8	-0.1217168
56	0xbecb99aa	-0.39765674
57	0x3e0fe2f7	0.14051424
58	0xbd22f080	-0.03978014
59	0xbe04a363	-0.12952952
60	0xbe1193d0	-0.14216542
61	0xbba56644	-0.0050475914
62	0xbcc92642	-0.024554376
63	0x3e977c76	0.29587144
64	0x3e7039c9	0.23459543
65	0x3df0d4b2	0.117593184
66	0xbd93a247	-0.07208686
67	0xbe8bc6d0	-0.2730012
68	0x3e3dedbf	0.18547724
69	0x3e9d5bef	0.30734202
70	0xbeb0ca3a	-0.34529287
71	0x3e53ddf7	0.20690142
72	0x3e547fa7	0.2075182
73	0x3d9abba3	0.0755532
74	0xbe8de17b	-0.2771109
75	0x3e316c4c	0.17326468
76	0x3d2a6f49	0.041610036
77	0x3e373c62	0.17894128
78	0xbe6eee63	-0.23333125
79	0xbe8e8dc7	-0.27842543
80	0x3e4296e0	0.19002867
81	0xbe998817	-0.2998664
82	0xbe33c22e	-0.17554542
83	0xbe346e89	-0.17620291
84	0x3c1bba21	0.009504826
85	0xbe6b0913	-0.2295268
86	0x3e87f113	0.26551113
87	0xbe442a0f	-0.19156669
88	0x3e034c03	0.12821965
89	0x3e1f5241	0.15558721
90	0xbcd685e3	-0.026186889
91	0x3e96e007	0.29467794
92	0xbe6523b3	-0.223769
93	0xbe7195e9	-0.23592342
94	0xbe1edbae	-0.15513489
95	0xbea7e5f8	-0.3279264
96	0xbe5b7472	-0.21431139
97	0x3e39ae2b	0.18132846
98	0x3e793864	0.24337918
99	0xbe849ac6	-0.25899333
100	0x3e76ef7b	0.24114792
101	0xbe3070f3	-0.17230587
102	0xbeb2ee9b	-0.34947667
103	0x3e1ab602	0.15108493
104	0xbeab6eb4	-0.33482897
105	0xbe0b862f	-0.13625406
106	0xbc13cbaf	-0.00902073
107	0x3aa84b43	0.0012839813
108	0x3de033f8	0.10947412
109	0x3e54e849	0.20791735
110	0xbe0691b7	-0.13141523
111	0x3e8121af	0.2522101
112	0x3e75a783	0.23989682
113	0x3da4f359	0.080542274
114	0x3e4a7f30	0.1977508
115	0xbe34dc8f	-0.17662261
116	0xbe605be2	-0.2191005
117	0x3e2fcab6	0.17167172
118	0x3da07ecf	0.07836687
119	0xbcf60f21	-0.03003651
120	0xbd2d83f8	-0.042362183
121	0xbdb65fa8	-0.08904964
122	0x3e2bd13d	0.16779037
123	0x3e1dc9b4	0.15408975
124	0x3da74357	0.08167141
125	0xbe28d73d	-0.16488357
126	0xbe65ad33	-0.22429352
127	0xbe947c96	-0.29001302
128	0x3e1d41b9	0.15357102
129	0xbe28b4b2	-0.1647518
130	0x3e7077c9	0.23483194
131	0xbeb04c85	-0.3443338
132	0xbdc9bfaa	-0.0985101
133	0x3e3d5b30	0.18491817
134	0xbe79a5e9	-0.24379696
135	0xbe4a846b	-0.19777076
136	0x3e8d8153	0.2763773
137	0xbcdef7ca	-0.027217764
138	0xbe6b44f5	-0.22975524
139	0xbd88a04a	-0.06671198
140	0x3e85904e	0.26086658
141	0x3e52291f	0.20523499
142	0xbe03b00a	-0.12860122
143	0x3dc90bf8	0.09816736
144	0x3e192500	0.1495552
145	0x3d1ff8f5	0.039055783
146	0x3e3d0916	0.18460497
147	0x3e69eaa0	0.22843409
148	0xbe128d4f	-0.14311717
149	0xbe49b3c6	-0.19697484
150	0x3e05a9ff	0.1305313
151	0x3e2b4c4f	0.16728328
152	0x3e537903	0.20651631
153	0x3d7f83fb	0.062381726
154	0x3dbddc67	0.09270554
155	0x3cf97cc4	0.030455
156	0x3cd96d4c	0.026541375
157	0x3da5f201	0.08102799
158	0x3d3e4e9a	0.04646168
159	0xbe594253	-0.21216707
160	0xbe1e339e	-0.15449378
161	0x3e54f138	0.20795143
162	0xbea50551	-0.3223062
163	0xbe7081ca	-0.2348701
164	0xbebbfb83	-0.36715326
165	0xbd52641a	-0.051364996
166	0xbe937810	-0.28802538
167	0x3e588294	0.21143562
168	0x3e16fd7e	0.14745137
169	0xbde71d8a	-0.11284931
170	0xbcd846b5	-0.026400903
171	0x3e905037	0.281862
172	0xbe5cb701	-0.21554185
173	0x3e1d2013	0.15344267
174	0x3e76c0ab	0.24096934
175	0x3da9f63a	0.08298917
176	0xbe55c9fc	-0.20877832
177	0xbd723d90	-0.05914074
178	0x3e261b1e	0.16221282
179	0xbc19a878	-0.009378545
180	0xbebc1fd8	-0.36743045
181	0xbe1de3b7	-0.15418898
182	0xbeba14ab	-0.36343893
183	0xbd7d2c06	-0.061809562
184	0x3d4da6ec	0.050208017
185	0xbe0d0c04	-0.13774115
186	0x3d3ded8c	0.04636912
187	0x3e30b527	0.17256604
188	0x3e32f5fe	0.17476651
189	0xbe3e9069	-0.18609776
190	0xbebb1eba	-0.3654688
191	0xbe2ec9dd	-0.17069192
192	0xbd2952b0	-0.041338623
193	0xbe3c084f	-0.18362544
194	0x3e79875d	0.24368043
195	0xbde8e406	-0.11371617
196	0xbe8d948f	-0.27652404
197	0xbe46738d	-0.19380017
198	0x3ccac9d4	0.024754442
199	0x3ca668a1	0.020313563
200	0x3e7fec8a	0.24992576
201	0x3e8bb4af	0.27286288
202	0xbdb72335	-0.08942262
203	0xbcecbc37	-0.028898342
204	0xbcbac357	-0.022798223
205	0x3e4d5e30	0.20055461
206	0x3cd47b7c	0.025937788
207	0x3e93903f	0.2882099
208	0xbe5c81e9	-0.21533932
209	0x3d54429f	0.051821347
210	0xbe56f677	-0.20992456
211	0xbdc83f28	-0.09777671
212	0xbe9a2359	-0.30105093
213	0xbe09f027	-0.13470517
214	0x3d2866cf	0.04111367
215	0x3d44ff3f	0.048094984
216	0x3d690206	0.056886695
217	0xbdb4664d	-0.08808575
218	0xbe46652d	-0.19374533
219	0x3e739ddc	0.23790687
220	0xbe51e746	-0.2049838
221	0x3e803d50	0.25046778
222	0xbe27fdbd	-0.16405387
223	0x3e5ea9be	0.21744439
224	0xbe8e1b05	-0.2775499
225	0xbe043c14	-0.12913543
226	0x3e0bb0cd	0.13641663
227	0xbe55e8a8	-0.20889533
228	0xbe580bdf	-0.21098278
229	0x3e40141a	0.18757668
230	0xbeafcd46	-0.343363
231	0x3d34a264	0.04410018
232	0xbd0d6227	-0.034517433
233	0xbe53bda6	-0.20677814
234	0xbc0bf172	-0.008541452
235	0x3c3d7582	0.011563661
236	0xbe523da0	-0.2053132
237	0xbd95942b	-0.073036514
238	0xbc877494	-0.016535081
239	0xbd655f6a	-0.055999197
240	0x3e1d1bbf	0.15342616
241	0xbd227763	-0.039664637
242	0xbd6e05ba	-0.05811093
243	0x3d579f28	0.052642018
244	0x3e526f88	0.20550358
245	0xbd04d434	-0.032428935
246	0x3db8a338	0.090155065
247	0xbe6ddf0b	-0.23229615
248	0xbe821383	-0.2540551
249	0x3e6240e6	0.2209507
250	0x3d194065	0.037414927
251	0xbd95bc87	-0.07311349
252	0x3e1413c1	0.1446066
253	0x3dc7fc40	0.0976491
254	0x3d5cf7c1	0.053947214
255	0x3e8e177d	0.27752295

sequential/dense_1/BiasAdd/ReadVariableOp f4 [128]
0	0x3d16617c	0.036714062
1	0x3c35fce7	0.01110766
2	0xbbb21a24	-0.005435245
3	0xbb9e8ae1	-0.004838333
4	0x3caaf0fa	0.02086686
5	0x3ca9240b	0.02064707
6	0x3c6a9a84	0.014319066
7	0x3c42d327	0.011891163
8	0xbbc84e61	-0.006112859
9	0x3c47de4c	0.012198996
10	0x3d0199df	0.031640884
11	0x3ccb9a5d	0.02485388
12	0x3c294f38	0.010333829
13	0xbc703524	-0.014661107
14	0xbbbd9851	-0.00578598
15	0x3c336b5d	0.01095089
16	0x3ca8fddd	0.020628864
17	0x3c61dc91	0.013785497
18	0x3c154552	0.0091107655
19	0x3c53767d	0.012906668
20	0x3c7ae285	0.0153127955
21	0x3c9b8c47	0.018987788
22	0x3c76c78e	0.015062226
23	0xbc1fc632	-0.009751843
24	0x3bdc9f5d	0.006732865
25	0x3c4e22ab	0.012581508
26	0x3ca00017	0.019531293
27	0x3ca8766c	0.02056428
28	0x3ca4b9dd	0.020108158
29	0xbc00d9e9	-0.007864454
30	0x3c45fb12	0.012083786
31	0x3c1cba68	0.009565927
32	0x3ca509db	0.020146301
33	0x3c8eb8fd	0.017422194
34	0x3c5d895a	0.013521517
35	0x00000000	0.0
36	0xbc0a54ae	-0.008443041
37	0x3bcdedbe	0.0062844446
38	0x3c4e495e	0.012590734
39	0x3d12b10c	0.035813376
40	0xbb864d12	-0.004098543
41	0x3c305ea2	0.01076475
42	0x00000000	0.0
43	0xbbe4b33d	-0.0069793747
44	0xbbffd828	-0.0078077503
45	0xbbd95354	-0.006632248
46	0x3cdded21	0.027090611
47	0x3c0afa2e	0.008482499
48	0x3a4f4343	0.0007906446
49	0x3c0af8aa	0.008482138
50	0xbbb61bcd	-0.0055575133
51	0x3c026eba	0.00796097
52	0x00000000	0.0
53	0x3c6bf7ef	0.014402374
54	0x3c45782b	0.012052576
55	0x3cf8007e	0.030273672
56	0x3c31230b	0.010811578
57	0xbbef8238	-0.0073092245
58	0x3cb489f6	0.022038441
59	0xbbf66c2a	-0.0075202184
60	0x3bd05f70	0.0063590333
61	0xbc3962ae	-0.011315031
62	0xbbc4c69a	-0.0060051205
63	0x3c032175	0.008003582
64	0x3c091270	0.008366212
65	0x3b8fcfec	0.0043888
66	0x3c45a043	0.012062135
67	0x3abd3788	0.0014436105
68	0x3c6d04c9	0.014466473
69	0xbbae9dd8	-0.005328875
70	0xbc00faed	-0.007872325
71	0x3d117269	0.0355095
72	0x3c0aeabe	0.008478818
73	0x3c824346	0.01590122
74	0x3cc3ee5f	0.023917375
75	0x3bd3484d	0.006447828
76	0xbbe1e09e	-0.0068932315
77	0x3bc10e81	0.0058916216
78	0xbc122a0b	-0.008921157
79	0x3ceb0b12	0.028691802
80	0x3c192343	0.009346786
81	0xbb87cf80	-0.004144609
82	0xbc1abb36	-0.009444049
83	0x3c59dea3	0.01329771
84	0x3cc0ae65	0.023520658
85	0xbaa331b2	-0.0012450723
86	0x3c8c5420	0.017129958
87	0xbc0aef01	-0.0084798345
88	0xba32afae	-0.00068163394
89	0x3ca0e556	0.019640606
90	0x3c6cb04e	0.014446331
91	0x3c9d2f87	0.019187702
92	0xbaa90d06	-0.0012897558
93	0x3ca6991e	0.020336684
94	0x3c69824b	0.014252256
95	0x3c269e01	0.010169507
96	0x3c4cccfc	0.012500044
97	0xbaae6cd0	-0.0013307575
98	0x3c19812f	0.009369179
99	0x00000000	0.0
100	0x3c57393a	0.0131362025
101	0x3c579cf4	0.013159979
102	0xbba27793	-0.004958102
103	0x3bf75aae	0.0075486517
104	0x3c8c6715	0.017138997
105	0x3c61f167	0.013790465
106	0xbbcf4df8	-0.0063264333
107	0xbc392b26	-0.011301791
108	0x3cb09da6	0.021559548
109	0x3c4b146c	0.012395006
110	0xbc0e554b	-0.008687328
111	0xbc0affc5	-0.008483832
112	0xbb4eda48	-0.0031563211
113	0x3c980406	0.018556606
114	0x3cc6d895	0.024273196
115	0x3c3359e9	0.010946729
116	0xbbb6245a	-0.0055585327
117	0x3c73a38b	0.014870535
118	0x3b39bcf6	0.002834139
119	0xbbfbf109	-0.0076886457
120	0x3c3188a6	0.010835802
121	0xbc1c1bc5	-0.009528105
122	0x00000000	0.0
123	0x00000000	0.0
124	0x3c9ad40a	0.018899936
125	0x3c5cbf45	0.013473337
126	0x3c587c9c	0.013213303
127	0x3bf36a85	0.0074284696

sequential/dense_2/BiasAdd/ReadVariableOp f4 [64]
0	0x3c89a507	0.016802324
1	0x3c76bcd6	0.01505967
2	0xba3a57f8	-0.0007108445
3	0x3beea829	0.00728323
4	0x39ac6728	0.00032883254
5	0x3c052948	0.008127518
6	0x3a76547f	0.0009396746
7	0xb9e59ea9	-0.00043796495
8	0x3c8fca34	0.017552473
9	0xbc4399bb	-0.011938508
10	0x3cc701e7	0.0242929
11	0xbc9534dc	-0.018213682
12	0xbbbd08c7	-0.0057688686
13	0x3b78d512	0.0037968797
14	0x3ccae376	0.024766665
15	0x3b757b7c	0.0037457636
16	0x3c994afe	0.018712517
17	0x3bbbd5e8	0.0057322867
18	0xbc1e46af	-0.009660407
19	0x3be889fe	0.007096528
20	0x3c877d40	0.016539216
21	0x3c704a10	0.014666095
22	0xbc8ecbe4	-0.017431207
23	0x3c2e69b2	0.010645317
24	0x3c234a23	0.009966406
25	0x3c03455f	0.008012145
26	0x3ab0376c	0.0013444251
27	0x3a18eb07	0.00058333616
28	0x3cb555ff	0.022135733
29	0x3c314ea7	0.010821975
30	0x3cb31cfe	0.02186441
31	0x3b704b78	0.0036666077
32	0x3cb866f0	0.022510022
33	0x3ccb7e2d	0.024840439
34	0x3c2d826c	0.010590177
35	0x3c140a73	0.009035694
36	0x3cbc28ac	0.022968613
37	0x3c18c999	0.009325408
38	0x3ca09eaf	0.019606916
39	0x3bdcf989	0.006743614
40	0x3c8f6aee	0.017507043
41	0xbbc4c86e	-0.0060053384
42	0x3be8fd75	0.0071102926
43	0x3c7966f0	0.015222296
44	0x3ca18eb3	0.019721365
45	0xbbaa543f	-0.005198031
46	0xbbf61281	-0.00750953
47	0x3b95221b	0.004551185
48	0x3ca1b31c	0.019738726
49	0xbc322fc9	-0.010875651
50	0x3b23b1c6	0.0024977787
51	0xb984af79	-0.0002530774
52	0x3c1b56fc	0.009481188
53	0xbba9b92c	-0.005179545
54	0x3b5c8efc	0.0033654561
55	0xbc5557e5	-0.013021444
56	0x3bbda421	0.005787388
57	0x3c850812	0.0162392
58	0x3c62143c	0.01379877
59	0xbc26f3c3	-0.010189953
60	0x3cdc8cb8	0.026922569
61	0x3b9acb72	0.0047239596
62	0x3ce3d8cc	0.027813338
63	0x3cdbc441	0.02682698

sequential/dense_3/BiasAdd/ReadVariableOp f4 [8]
0	0x3b0f8c73	0.0021903783
1	0xbb3ee7f5	-0.0029129956
2	0xbba329fc	-0.00497937
3	0xbc886525	-0.016649792
4	0x3b9b547a	0.004740295
5	0x3ba2b1f5	0.004965062
6	0xbc32f570	-0.010922775
7	0x3c308734	0.010774422

sequential/dense/BiasAdd/ReadVariableOp f4 [512]
0	0x3ce3cf5a	0.027808834
1	0x3c19f96b	0.009397845
2	0x3cc2430f	0.023713617
3	0x3be64047	0.0070267054
4	0x3c423923	0.011854443
5	0x3ce68019	0.028137254
6	0x3cae03a9	0.02124198
7	0x3c446d3f	0.011988937
8	0x3c26990a	0.010168323
9	0x3c15bf40	0.009139836
10	0x3cb9740d	0.022638345
11	0x3ca5020d	0.02014258
12	0x3c92806c	0.017883502
13	0x3c312404	0.010811809
14	0x3caf935e	0.021432575
15	0x3c23693c	0.00997382
16	0x3c45ddbf	0.012076794
17	0x3cac086e	0.021000113
18	0x3cbeae8a	0.023276586
19	0x3c93b5ae	0.018030968
20	0xbba51553	-0.0050379424
21	0x3c82d138	0.015968904
22	0xbc19549f	-0.009358554
23	0x3c5c390b	0.0134413345
24	0xbbb5e7b0	-0.005551301
25	0x3c83e61b	0.016100934
26	0xbc375907	-0.011190659
27	0x3c815bd4	0.015790857
28	0x3ccdda4b	0.025128504
29	0xbbf41d56	-0.007449786
30	0xbbc4130a	-0.005983715
31	0xbc018e67	-0.0079074865
32	0x3cd455c0	0.025919795
33	0xbb6146f9	-0.0034374578
34	0x3c5059e0	0.01271674
35	0x3c9f4e98	0.019446656
36	0x3ca78e6b	0.020453652
37	0xbc3484c8	-0.011017986
38	0x3bd8bf89	0.0066146296
39	0x3c9d13d8	0.019174501
40	0x3c999363	0.018747037
41	0xbc09b746	-0.008405512
42	0x3ccff562	0.025385562
43	0xbc196d8a	-0.009364495
44	0x3c54357b	0.012952204
45	0x3cc698b7	0.024242742
46	0xbb9dbdc4	-0.0048138816
47	0x3cb643a9	0.02224906
48	0x3cb3c5cf	0.021944908
49	0x3d262110	0.040558875
50	0xbb9ecf95	-0.004846523
51	0xbbc4b501	-0.0060030227
52	0x3cb300cc	0.021850966
53	0x3cd9f22c	0.026604734
54	0x3d33a174	0.043855146
55	0x3ce7f1d3	0.028313553
56	0x3c92e190	0.017929822
57	0xbbb5bb65	-0.005546021
58	0x3cd6039b	0.026124766
59	0xbbc378ce	-0.005965329
60	0x3cccbe79	0.024993168
61	0x3c6560c1	0.014000119
62	0xbbab31c3	-0.005224438
63	0x3c7db688	0.015485413
64	0x3c9a2cf2	0.01882026
65	0x3c828a5f	0.015935121
66	0x3c1ce903	0.009577039
67	0x3c9100bb	0.017700544
68	0x3c7adb9c	0.015311148
69	0x3c205a2e	0.0097871255
70	0x3c8126a3	0.015765494
71	0x3d2f8574	0.04285188
72	0x3cdbc020	0.02682501
73	0x3c46c601	0.012132169
74	0x3cee570e	0.029094245
75	0x3c2c3b4c	0.010512184
76	0xbbc4b405	-0.0060029053
77	0x3cba5dcc	0.022749804
78	0xbbab256a	-0.005222966
79	0x3c441975	0.01196896
80	0x3c7726ef	0.015084966
81	0x3c09331a	0.008374
82	0x3cb5ddc4	0.022200473
83	0x3ca4add5	0.02010242
84	0x3c9499af	0.018139688
85	0xbb0c325f	-0.0021392328
86	0xbc10322e	-0.008801026
87	0xbbe61c80	-0.0070224404
88	0x3c70fe10	0.014709011
89	0xbbaabf47	-0.0052107903
90	0xbbb60d94	-0.005555818
91	0xbb9ca4bb	-0.0047803796
92	0x3c19f193	0.009395975
93	0x3c5b6fb0	0.013393328
94	0xbbab44ab	-0.0052266917
95	0xbba7e08b	-0.005123203
96	0x3d170bdb	0.03687654
97	0x3c25a166	0.010109281
98	0x3cd99887	0.026561989
99	0x3c5de17b	0.013542528
100	0x3ccdf13e	0.025139447
101	0x3ca1eeee	0.01976725
102	0xbba8071d	-0.005127801
103	0x3cc8218e	0.024430063
104	0x3c8240f6	0.015900116
105	0x3c46bfa1	0.012130649
106	0x3c5b9add	0.0134036215
107	0x3ceb43ea	0.028718907
108	0x3c61c3c9	0.013779589
109	0x3d100116	0.035157286
110	0xbbdfbf84	-0.0068282504
111	0x3be9fa90	0.007140465
112	0x3b8c01a9	0.004272659
113	0x3c3e5044	0.0116158165
114	0x3bb54788	0.005532209
115	0xbbe973f1	-0.007124417
116	0x3caa516f	0.020790784
117	0x3c72a94b	0.01481087
118	0x3c30faa4	0.010801945
119	0x3c3b2024	0.011421237
120	0x3d12c109	0.035828624
121	0x3c3f1d80	0.011664748
122	0x3c864b5a	0.016393352
123	0xbc146593	-0.00905742
124	0x3b10e3a2	0.0022108336
125	0x3b03c1ff	0.0020104644
126	0x3c6a4f4d	0.014301133
127	0x3d2a2d76	0.04154726
128	0xbbab4eca	-0.0052278982
129	0x3c8b8b12	0.017034087
130	0x3c53e736	0.012933543
131	0x3c873014	0.016502418
132	0x3c81e266	0.015855026
133	0x3c8681bb	0.016419282
134	0xba81eaf6	-0.0009911943
135	0x3c2ea975	0.010660519
136	0x3cc51f8d	0.024062896
137	0xbc407f2d	-0.011749071
138	0x3c930a80	0.017949343
139	0x3c4eb76f	0.012616976
140	0x3c97578d	0.018474365
141	0x3ca52108	0.020157352
142	0x3c6788d2	0.014131742
143	0xbbb61184	-0.0055562872
144	0x3be560de	0.007000073
145	0x3b6064a3	0.0034239672
146	0x3cf05c56	0.029340904
147	0xbbe7bc76	-0.007072027
148	0x3c836f92	0.016044412
149	0x3c8478a7	0.016170813
150	0xbbe8ba7d	-0.0071023093
151	0x3c761844	0.015020434
152	0x3be67484	0.0070329327
153	0x3c980575	0.01855729
154	0x3c44957a	0.011998529
155	0xbbf1f3d7	-0.0073838043
156	0x3ca05c03	0.019575125
157	0x3c9cb80a	0.019130725
158	0xbbd19d52	-0.006396928
159	0x3cf8955f	0.030344663
160	0x3c8eda84	0.01743818
161	0x00000000	0.0
162	0xbc09f3d5	-0.0084199505
163	0x3be96e9e	0.0071237823
164	0xbc346aa4	-0.011011753
165	0x3cc7c267	0.02438469
166	0x3c24d6e4	0.010061
167	0x3c2e03c3	0.010621014
168	0x3c37a892	0.011209624
169	0x3c885688	0.016642824
170	0xbbddfed8	-0.0067747645
171	0x3c7e623a	0.015526349
172	0x3c68dcaf	0.014212771
173	0x3cfcb51c	0.030848078
174	0x3cda4548	0.026644364
175	0x3cc049c0	0.023472667
176	0x3c9813ab	0.018564066
177	0x3c4fbbc1	0.012679041
178	0x00000000	0.0
179	0x3cb045fa	0.021517742
180	0x3cba4088	0.022735849
181	0x3c04c162	0.008102747
182	0x3cb935dd	0.022608692
183	0x3caece9c	0.021338753
184	0xbc036347	-0.008019275
185	0x3c68d4fc	0.014210936
186	0xbc0277f7	-0.007963172
187	0x3cc60cbd	0.024175996
188	0x00000000	0.0
189	0x3cba4e97	0.022742553
190	0x00000000	0.0
191	0x3be80513	0.007080683
192	0xbbb48293	-0.0055087297
193	0x3cb48efe	0.02204084
194	0x3d13eeeb	0.03611652
195	0xbbc2cca3	-0.0059448048
196	0x3c18b1bd	0.00931972
197	0x3cb359a8	0.021893337
198	0x3b624db1	0.003453117
199	0x3c5ec50f	0.013596787
200	0x3c0dba1e	0.008650331
201	0x3c7a694f	0.015283897
202	0x3d17c9b2	0.037057586
203	0x00000000	0.0
204	0x3d2520d3	0.040314507
205	0xbbab276b	-0.005223205
206	0xbc02aabc	-0.007975277
207	0x3c2555a1	0.010091216
208	0xbbb1b0a0	-0.0054226667
209	0x3c8a1edb	0.016860416
210	0x3ca66735	0.020312885
211	0x3c343556	0.010999044
212	0x3cd43567	0.02590437
213	0x3c97c4ab	0.018526396
214	0xbc3a7c12	-0.01138212
215	0x3ccd31f8	0.025048241
216	0x3b807b34	0.003920937
217	0x3cc3b16a	0.023888309
218	0x3c4f7ae5	0.012663578
219	0xbbfeaead	-0.007772288
220	0xbbb544bd	-0.005531876
221	0xbbee0bdf	-0.0072645987
222	0x3ca9cf91	0.020728858
223	0x3c854d90	0.016272336
224	0x3cdf364c	0.02724757
225	0xbbc5bba1	-0.00603433
226	0x3c8f6fde	0.017509397
227	0x3b4afab6	0.003097219
228	0x3cede3dc	0.029039316
229	0xbbbd7483	-0.0057817115
230	0x3cc23304	0.023705967
231	0x3c98e7e2	0.018665258
232	0x3c52a7b6	0.012857368
233	0x3c868926	0.01642282
234	0x3cba80de	0.022766527
235	0xbbb1dd37	-0.005427982
236	0x3caf2bf4	0.021383263
237	0x3c85f64d	0.016352797
238	0xbc16f1d6	-0.009212932
239	0x3cb1a88e	0.021686818
240	0x3baf52cf	0.0053504477
241	0x3d0cea0d	0.034402896
242	0x3ce68171	0.028137894
243	0x3b54198a	0.0032363855
244	0x3c96ea32	0.01842222
245	0x3cc4e4f1	0.024034949
246	0x3c719105	0.014744048
247	0x3c6abf87	0.01432789
248	0x3d166cb1	0.03672475
249	0x3cd8433e	0.026399251
250	0x3d0a76df	0.03380477
251	0x3c9739b7	0.018460138
252	0x00000000	0.0
253	0x3cba39fa	0.022732724
254	0x3c94ba27	0.01815517
255	0x3c9c4e80	0.0190804

sequential/dense/MatMul i1 [512, 600] scale=0.0019784498 zero_point=0
0	0xcf	-0.09694404
1	0x2f	0.092987135
2	0xf8	-0.015827598
3	0x25	0.07320264
4	0xfa	-0.011870699
5	0x05	0.009892249
6	0xca	-0.10683629
7	0x13	0.037590545
8	0xff	-0.0019784498
9	0x04	0.007913799
10	0xea	-0.043525893
11	0xdb	-0.07320264
12	0xd9	-0.07715954
13	0x02	0.0039568995
14	0x2b	0.08507334
15	0x21	0.06528884
16	0xee	-0.035612095
17	0xe1	-0.061331943
18	0xe1	-0.061331943
19	0xf4	-0.023741398
20	0x26	0.07518109
21	0xf9	-0.0138491485
22	0xf5	-0.021762947
23	0x01	0.0019784498
24	0xf2	-0.027698297
25	0x04	0.007913799
26	0x13	0.037590545
27	0x2f	0.092987135
28	0xfd	-0.0059353495
29	0xfb	-0.009892249
30	0xcc	-0.10287939
31	0xf8	-0.015827598
32	0x0d	0.025719848
33	0x25	0.07320264
34	0x33	0.10090094
35	0x18	0.047482796
36	0xc9	-0.10881474
37	0x0d	0.025719848
38	0x0a	0.019784497
39	0xff	-0.0019784498
40	0x16	0.043525893
41	0x1e	0.059353493
42	0xc8	-0.11079319
43	0x10	0.031655196
44	0xe8	-0.047482796
45	0x23	0.06924574
46	0x15	0.041547444
47	0xeb	-0.041547444
48	0xf8	-0.015827598
49	0xf8	-0.015827598
50	0xf0	-0.031655196
51	0x20	0.06331039
52	0x03	0.0059353495
53	0x27	0.07715954
54	0xe5	-0.053418145
55	0x1f	0.061331943
56	0xe5	-0.053418145
57	0x08	0.015827598
58	0x1c	0.055396594
59	0x2b	0.08507334
60	0xec	-0.039568994
61	0xf7	-0.017806048
62	0x12	0.035612095
63	0x26	0.07518109
64	0xf2	-0.027698297
65	0x10	0.031655196
66	0xbe	-0.13057768
67	0x0f	0.029676747
68	0xe1	-0.061331943
69	0x0d	0.025719848
70	0x06	0.011870699
71	0x26	0.07518109
72	0xbf	-0.12859924
73	0x03	0.0059353495
74	0x06	0.011870699
75	0xfd	-0.0059353495
76	0x12	0.035612095
77	0x11	0.033633646
78	0xd3	-0.089030236
79	0x25	0.07320264
80	0xdb	-0.07320264
81	0x1e	0.059353493
82	0xd4	-0.08705179
83	0x0a	0.019784497
84	0xd6	-0.08309489
85	0x20	0.06331039
86	0xef	-0.033633646
87	0x2c	0.08705179
88	0x08	0.015827598
89	0x10	0.031655196
90	0xb7	-0.14442684
91	0xfa	-0.011870699
92	0xde	-0.06726729
93	0x29	0.08111644
94	0xef	-0.033633646
95	0x2b	0.08507334
96	0xd8	-0.07913799
97	0xf8	-0.015827598
98	0x17	0.045504343
99	0x2e	0.091008686
100	0x11	0.033633646
101	0x0a	0.019784497
102	0xc4	-0.11870699
103	0xf3	-0.025719848
104	0xe3	-0.057375044
105	0xf9	-0.0138491485
106	0x1d	0.057375044
107	0x07	0.0138491485
108	0xd5	-0.08507334
109	0xf9	-0.0138491485
110	0x04	0.007913799
111	0x13	0.037590545
112	0x1f	0.061331943
113	0x37	0.10881474
114	0xdd	-0.06924574
115	0xfb	-0.009892249
116	0xe5	-0.053418145
117	0x0c	0.023741398
118	0x28	0.07913799
119	0x11	0.033633646
120	0xca	-0.10683629
121	0xf4	-0.023741398
122	0xd9	-0.07715954
123	0xfc	-0.007913799
124	0xf6	-0.019784497
125	0x19	0.049461246
126	0xea	-0.043525893
127	0x18	0.047482796
128	0x0d	0.025719848
129	0x10	0.031655196
130	0xf3	-0.025719848
131	0x0c	0.023741398
132	0xfc	-0.007913799
133	0x10	0.031655196
134	0xdf	-0.06528884
135	0xeb	-0.041547444
136	0xf4	-0.023741398
137	0x2e	0.091008686
138	0xf6	-0.019784497
139	0x28	0.07913799
140	0x0f	0.029676747
141	0xfb	-0.009892249
142	0x0a	0.019784497
143	0xfe	-0.0039568995
144	0xe3	-0.057375044
145	0xe5	-0.053418145
146	0xe4	-0.055396594
147	0xf7	-0.017806048
148	0xeb	-0.041547444
149	0x00	0.0
150	0xfc	-0.007913799
151	0xf4	-0.023741398
152	0xe9	-0.045504343
153	0x2a	0.08309489
154	0x35	0.10485784
155	0x22	0.06726729
156	0xde	-0.06726729
157	0x1c	0.055396594
158	0x0e	0.027698297
159	0x08	0.015827598
160	0x0e	0.027698297
161	0x19	0.049461246
162	0xe8	-0.047482796
163	0x0c	0.023741398
164	0x02	0.0039568995
165	0x08	0.015827598
166	0x16	0.043525893
167	0x1e	0.059353493
168	0xf6	-0.019784497
169	0x0c	0.023741398
170	0x1c	0.055396594
171	0xd2	-0.091008686
172	0x2c	0.08705179
173	0x33	0.10090094
174	0xde	-0.06726729
175	0xf7	-0.017806048
176	0xf0	-0.031655196
177	0xf2	-0.027698297
178	0x09	0.017806048
179	0x0f	0.029676747
180	0xf3	-0.025719848
181	0x1e	0.059353493
182	0xfb	-0.009892249
183	0xea	-0.043525893
184	0x1e	0.059353493
185	0x0d	0.025719848
186	0xd7	-0.08111644
187	0xfd	-0.0059353495
188	0xfa	-0.011870699
189	0xd3	-0.089030236
190	0x19	0.049461246
191	0x0c	0.023741398
192	0xdf	-0.06528884
193	0x0f	0.029676747
194	0x1e	0.059353493
195	0xeb	-0.041547444
196	0x00	0.0
197	0x0c	0.023741398
198	0xf5	-0.021762947
199	0xf7	-0.017806048
200	0xd9	-0.07715954
201	0xd4	-0.08705179
202	0x1d	0.057375044
203	0x25	0.07320264
204	0x06	0.011870699
205	0x03	0.0059353495
206	0x0d	0.025719848
207	0xf8	-0.015827598
208	0x09	0.017806048
209	0x35	0.10485784
210	0xf4	-0.023741398
211	0x27	0.07715954
212	0xe7	-0.049461246
213	0xee	-0.035612095
214	0x3e	0.122663885
215	0x3a	0.11475009
216	0x09	0.017806048
217	0x0c	0.023741398
218	0x07	0.0138491485
219	0xe9	-0.045504343
220	0x14	0.039568994
221	0x2f	0.092987135
222	0x0c	0.023741398
223	0x06	0.011870699
224	0xf8	-0.015827598
225	0xcc	-0.10287939
226	0x39	0.11277164
227	0x23	0.06924574
228	0x24	0.07122419
229	0x0b	0.021762947
230	0x17	0.045504343
231	0xd8	-0.07913799
232	0x2f	0.092987135
233	0x08	0.015827598
234	0x1f	0.061331943
235	0xea	-0.043525893
236	0x1c	0.055396594
237	0xc2	-0.122663885
238	0x07	0.0138491485
239	0x30	0.09496559
240	0x0a	0.019784497
241	0x06	0.011870699
242	0x11	0.033633646
243	0xcf	-0.09694404
244	0x01	0.0019784498
245	0x32	0.09892249
246	0x3f	0.124642335
247	0x25	0.07320264
248	0x2a	0.08309489
249	0x08	0.015827598
250	0x35	0.10485784
251	0x3b	0.11672854
252	0x21	0.06528884
253	0x1b	0.053418145
254	0x2b	0.08507334
255	0xe1	-0.061331943

sequential/dense_1/MatMul i1 [128, 512] scale=0.0024395573 zero_point=0
0	0xf1	-0.03659336
1	0x16	0.05367026
2	0x26	0.09270318
3	0x31	0.11953831
4	0xe8	-0.058549374
5	0xf1	-0.03659336
6	0xf7	-0.021956015
7	0xe9	-0.05610982
8	0x0b	0.02683513
9	0x09	0.021956015
10	0xe8	-0.058549374
11	0x13	0.04635159
12	0x10	0.039032917
13	0x15	0.051230703
14	0xf8	-0.019516459
15	0x27	0.09514274
16	0x20	0.078065835
17	0x1f	0.07562628
18	0x07	0.017076902
19	0xdb	-0.09026362
20	0xda	-0.09270318
21	0xcc	-0.12685698
22	0x1c	0.06830761
23	0x09	0.021956015
24	0x05	0.012197787
25	0xfd	-0.007318672
26	0x2a	0.102461405
27	0x0c	0.029274687
28	0xe2	-0.07318672
29	0xe7	-0.060988933
30	0xdf	-0.08050539
31	0xdc	-0.08782406
32	0x20	0.078065835
33	0xd9	-0.09514274
34	0x0b	0.02683513
35	0x1a	0.06342849
36	0xbf	-0.15857123
37	0x18	0.058549374
38	0xf7	-0.021956015
39	0x25	0.09026362
40	0xfc	-0.009758229
41	0x05	0.012197787
42	0x22	0.08294495
43	0xfe	-0.0048791147
44	0x46	0.17076902
45	0x40	0.15613167
46	0xff	-0.0024395573
47	0x36	0.1317361
48	0xe9	-0.05610982
49	0x28	0.097582296
50	0x08	0.019516459
51	0xde	-0.08294495
52	0xd7	-0.100021854
53	0x2a	0.102461405
54	0x0a	0.024395574
55	0x25	0.09026362
56	0xd3	-0.10978008
57	0xfc	-0.009758229
58	0x34	0.12685698
59	0xf8	-0.019516459
60	0xcd	-0.124417424
61	0xd1	-0.1146592
62	0x0b	0.02683513
63	0xf8	-0.019516459
64	0x05	0.012197787
65	0xd3	-0.10978008
66	0xf1	-0.03659336
67	0xcf	-0.11953831
68	0x18	0.058549374
69	0x2e	0.11221964
70	0x26	0.09270318
71	0x30	0.11709875
72	0xf7	-0.021956015
73	0x34	0.12685698
74	0xfc	-0.009758229
75	0xef	-0.041472476
76	0x1f	0.07562628
77	0xf9	-0.017076902
78	0xe2	-0.07318672
79	0x10	0.039032917
80	0xfb	-0.012197787
81	0x17	0.05610982
82	0xf3	-0.031714246
83	0xce	-0.121977866
84	0x29	0.100021854
85	0x1b	0.06586805
86	0xef	-0.041472476
87	0xde	-0.08294495
88	0x03	0.007318672
89	0xde	-0.08294495
90	0x15	0.051230703
91	0xed	-0.04635159
92	0xcf	-0.11953831
93	0xf0	-0.039032917
94	0xe5	-0.06586805
95	0x27	0.09514274
96	0x39	0.13905478
97	0xce	-0.121977866
98	0xe7	-0.060988933
99	0x19	0.060988933
100	0xcc	-0.12685698
101	0xd4	-0.10734052
102	0x14	0.048791148
103	0xdb	-0.09026362
104	0x11	0.041472476
105	0x04	0.009758229
106	0x03	0.007318672
107	0xec	-0.048791148
108	0x03	0.007318672
109	0x2b	0.10490096
110	0xee	-0.04391203
111	0xf3	-0.031714246
112	0xfa	-0.014637344
113	0xf9	-0.017076902
114	0x49	0.17808768
115	0xee	-0.04391203
116	0x0a	0.024395574
117	0xd4	-0.10734052
118	0x18	0.058549374
119	0x00	0.0
120	0x37	0.13417566
121	0x21	0.08050539
122	0xe2	-0.07318672
123	0xe0	-0.078065835
124	0x0e	0.034153804
125	0xed	-0.04635159
126	0x1a	0.06342849
127	0x26	0.09270318
128	0xdc	-0.08782406
129	0x12	0.04391203
130	0x22	0.08294495
131	0x00	0.0
132	0x02	0.0048791147
133	0xcc	-0.12685698
134	0x17	0.05610982
135	0x2f	0.1146592
136	0x38	0.13661522
137	0xdf	-0.08050539
138	0x12	0.04391203
139	0xf1	-0.03659336
140	0x1d	0.07074716
141	0x20	0.078065835
142	0x12	0.04391203
143	0x05	0.012197787
144	0x28	0.097582296
145	0xf2	-0.034153804
146	0x2a	0.102461405
147	0xfd	-0.007318672
148	0xe7	-0.060988933
149	0x02	0.0048791147
150	0x1b	0.06586805
151	0x20	0.078065835
152	0xf3	-0.031714246
153	0x28	0.097582296
154	0x13	0.04635159
155	0xf5	-0.02683513
156	0xf2	-0.034153804
157	0xdf	-0.08050539
158	0x19	0.060988933
159	0x1e	0.07318672
160	0xcc	-0.12685698
161	0xde	-0.08294495
162	0x18	0.058549374
163	0x0a	0.024395574
164	0x04	0.009758229
165	0xd5	-0.10490096
166	0x3d	0.148813
167	0x01	0.0024395573
168	0x15	0.051230703
169	0xd3	-0.10978008
170	0xf7	-0.021956015
171	0x44	0.1658899
172	0x29	0.100021854
173	0x2c	0.10734052
174	0xf8	-0.019516459
175	0xf6	-0.024395574
176	0x1d	0.07074716
177	0xd5	-0.10490096
178	0x21	0.08050539
179	0x3b	0.14393388
180	0x01	0.0024395573
181	0xcb	-0.12929654
182	0xe4	-0.06830761
183	0x20	0.078065835
184	0x13	0.04635159
185	0x27	0.09514274
186	0x04	0.009758229
187	0x25	0.09026362
188	0xe3	-0.07074716
189	0x15	0.051230703
190	0x02	0.0048791147
191	0x08	0.019516459
192	0xd9	-0.09514274
193	0x21	0.08050539
194	0x0c	0.029274687
195	0x11	0.041472476
196	0xfd	-0.007318672
197	0xfd	-0.007318672
198	0x20	0.078065835
199	0xdd	-0.08538451
200	0xe8	-0.058549374
201	0x0d	0.031714246
202	0xf4	-0.029274687
203	0x1d	0.07074716
204	0x2b	0.10490096
205	0xf9	-0.017076902
206	0x1a	0.06342849
207	0x01	0.0024395573
208	0xde	-0.08294495
209	0x0e	0.034153804
210	0xe8	-0.058549374
211	0xf4	-0.029274687
212	0xe1	-0.07562628
213	0x24	0.08782406
214	0xe0	-0.078065835
215	0xd4	-0.10734052
216	0xe3	-0.07074716
217	0x1a	0.06342849
218	0x00	0.0
219	0xfb	-0.012197787
220	0x07	0.017076902
221	0xdf	-0.08050539
222	0xc0	-0.15613167
223	0x27	0.09514274
224	0x10	0.039032917
225	0x1c	0.06830761
226	0x2f	0.1146592
227	0x1e	0.07318672
228	0x2a	0.102461405
229	0xe1	-0.07562628
230	0xf9	-0.017076902
231	0x0e	0.034153804
232	0x22	0.08294495
233	0xc6	-0.14149432
234	0xda	-0.09270318
235	0x23	0.08538451
236	0x06	0.014637344
237	0xd2	-0.11221964
238	0x1d	0.07074716
239	0x0c	0.029274687
240	0x38	0.13661522
241	0x21	0.08050539
242	0x34	0.12685698
243	0xf1	-0.03659336
244	0xd1	-0.1146592
245	0xee	-0.04391203
246	0xf9	-0.017076902
247	0xf4	-0.029274687
248	0x1d	0.07074716
249	0xef	-0.041472476
250	0x3d	0.148813
251	0xed	-0.04635159
252	0xef	-0.041472476
253	0x30	0.11709875
254	0xe2	-0.07318672
255	0x1b	0.06586805

sequential/dense_2/MatMul i1 [64, 128] scale=0.0028345438 zero_point=0
0	0x0c	0.034014527
1	0x33	0.14456174
2	0xc3	-0.17290717
3	0x4d	0.21825987
4	0xe1	-0.08787086
5	0x48	0.20408715
6	0x01	0.0028345438
7	0xd7	-0.116216294
8	0x07	0.019841807
9	0x39	0.161569
10	0x0f	0.042518158
11	0x07	0.019841807
12	0x3b	0.16723809
13	0x40	0.1814108
14	0xca	-0.15306537
15	0xf2	-0.039683614
16	0xf6	-0.028345438
17	0x18	0.06802905
18	0xfc	-0.011338175
19	0xf5	-0.031179981
20	0xc8	-0.15873446
21	0x24	0.10204358
22	0xdd	-0.09920903
23	0x57	0.2466053
24	0xd8	-0.11338175
25	0x4a	0.20975624
26	0x27	0.11054721
27	0xd4	-0.124719925
28	0x24	0.10204358
29	0x1e	0.085036315
30	0xb8	-0.20408715
31	0x01	0.0028345438
32	0xca	-0.15306537
33	0xd9	-0.11054721
34	0xe9	-0.06519451
35	0x26	0.10771266
36	0xc5	-0.16723809
37	0xe6	-0.07369814
38	0xfb	-0.014172719
39	0x36	0.15306537
40	0xef	-0.048187245
41	0xec	-0.056690875
42	0x22	0.09637449
43	0x11	0.048187245
44	0x02	0.0056690876
45	0x0a	0.028345438
46	0x13	0.05385633
47	0xd6	-0.11905084
48	0xeb	-0.05952542
49	0xe2	-0.085036315
50	0x07	0.019841807
51	0xfb	-0.014172719
52	0x31	0.13889265
53	0x40	0.1814108
54	0x29	0.116216294
55	0xce	-0.1417272
56	0xb7	-0.2069217
57	0xc7	-0.161569
58	0xef	-0.048187245
59	0xfa	-0.017007263
60	0xde	-0.09637449
61	0xc9	-0.15589991
62	0x25	0.10487812
63	0xc6	-0.16440354
64	0x1b	0.076532684
65	0xf8	-0.02267635
66	0xed	-0.05385633
67	0xce	-0.1417272
68	0x15	0.05952542
69	0x1c	0.07936723
70	0x11	0.048187245
71	0x2c	0.124719925
72	0xec	-0.056690875
73	0xd4	-0.124719925
74	0x1b	0.076532684
75	0x47	0.20125261
76	0x14	0.056690875
77	0x20	0.0907054
78	0x0c	0.034014527
79	0x2d	0.12755448
80	0x05	0.014172719
81	0xf2	-0.039683614
82	0xcf	-0.13889265
83	0xea	-0.062359963
84	0x11	0.048187245
85	0xe1	-0.08787086
86	0x36	0.15306537
87	0xd1	-0.13322356
88	0x3e	0.17574172
89	0x11	0.048187245
90	0xce	-0.1417272
91	0x2d	0.12755448
92	0x27	0.11054721
93	0x01	0.0028345438
94	0xe4	-0.07936723
95	0xfa	-0.017007263
96	0x29	0.116216294
97	0xba	-0.19841807
98	0x4a	0.20975624
99	0xdd	-0.09920903
100	0x1a	0.07369814
101	0x2c	0.124719925
102	0x2f	0.13322356
103	0x44	0.19274898
104	0xd2	-0.13038902
105	0x07	0.019841807
106	0xe3	-0.08220177
107	0xd9	-0.11054721
108	0x07	0.019841807
109	0x39	0.161569
110	0x37	0.15589991
111	0x01	0.0028345438
112	0x0b	0.031179981
113	0x42	0.18707989
114	0xc7	-0.161569
115	0x38	0.15873446
116	0xc7	-0.161569
117	0xdf	-0.093539946
118	0xf0	-0.0453527
119	0x39	0.161569
120	0xe5	-0.076532684
121	0xd8	-0.11338175
122	0xdf	-0.093539946
123	0x0a	0.028345438
124	0xcc	-0.14739628
125	0xfe	-0.0056690876
126	0x1c	0.07936723
127	0xfe	-0.0056690876
128	0xf7	-0.025510894
129	0xcd	-0.14456174
130	0x2d	0.12755448
131	0xea	-0.062359963
132	0x1a	0.07369814
133	0xe0	-0.0907054
134	0x19	0.0708636
135	0x14	0.056690875
136	0xea	-0.062359963
137	0x1a	0.07369814
138	0x16	0.062359963
139	0x45	0.19558352
140	0xb7	-0.2069217
141	0xc1	-0.17857626
142	0x1f	0.08787086
143	0x42	0.18707989
144	0xde	-0.09637449
145	0xde	-0.09637449
146	0xee	-0.05102179
147	0x1e	0.085036315
148	0xe4	-0.07936723
149	0x38	0.15873446
150	0x28	0.11338175
151	0xb2	-0.22109441
152	0xe0	-0.0907054
153	0x07	0.019841807
154	0x29	0.116216294
155	0x1c	0.07936723
156	0xe4	-0.07936723
157	0x02	0.0056690876
158	0xfb	-0.014172719
159	0xe8	-0.06802905
160	0x03	0.008503632
161	0xd9	-0.11054721
162	0xf5	-0.031179981
163	0x2d	0.12755448
164	0x20	0.0907054
165	0xd7	-0.116216294
166	0xf8	-0.02267635
167	0x10	0.0453527
168	0x3a	0.16440354
169	0xe5	-0.076532684
170	0xc7	-0.161569
171	0xbf	-0.18424535
172	0xf4	-0.034014527
173	0x09	0.025510894
174	0xf3	-0.03684907
175	0x18	0.06802905
176	0xfd	-0.008503632
177	0x08	0.02267635
178	0xf8	-0.02267635
179	0x13	0.05385633
180	0xe9	-0.06519451
181	0xd2	-0.13038902
182	0x2f	0.13322356
183	0x1a	0.07369814
184	0xec	-0.056690875
185	0x39	0.161569
186	0x27	0.11054721
187	0xf0	-0.0453527
188	0x0e	0.039683614
189	0xed	-0.05385633
190	0xd0	-0.1360581
191	0xd4	-0.124719925
192	0x05	0.014172719
193	0xef	-0.048187245
194	0x0a	0.028345438
195	0xd8	-0.11338175
196	0xff	-0.0028345438
197	0x27	0.11054721
198	0xff	-0.0028345438
199	0xf0	-0.0453527
200	0xc4	-0.17007263
201	0x1d	0.08220177
202	0x3f	0.17857626
203	0x14	0.056690875
204	0x21	0.093539946
205	0x44	0.19274898
206	0xcd	-0.14456174
207	0xf7	-0.025510894
208	0xbd	-0.18991444
209	0xef	-0.048187245
210	0x0c	0.034014527
211	0x25	0.10487812
212	0x11	0.048187245
213	0xf1	-0.042518158
214	0x26	0.10771266
215	0xfb	-0.014172719
216	0xbb	-0.19558352
217	0xf6	-0.028345438
218	0x38	0.15873446
219	0x29	0.116216294
220	0x32	0.1417272
221	0xf1	-0.042518158
222	0xd9	-0.11054721
223	0x46	0.19841807
224	0x03	0.008503632
225	0x02	0.0056690876
226	0xbf	-0.18424535
227	0xcd	-0.14456174
228	0xf2	-0.039683614
229	0x43	0.18991444
230	0xe2	-0.085036315
231	0x07	0.019841807
232	0xe4	-0.07936723
233	0x37	0.15589991
234	0xcf	-0.13889265
235	0xe2	-0.085036315
236	0x43	0.18991444
237	0x35	0.15023082
238	0xff	-0.0028345438
239	0x34	0.14739628
240	0xeb	-0.05952542
241	0xc4	-0.17007263
242	0x41	0.18424535
243	0x13	0.05385633
244	0xdb	-0.10487812
245	0xe7	-0.0708636
246	0x17	0.06519451
247	0xcc	-0.14739628
248	0xc5	-0.16723809
249	0x12	0.05102179
250	0xee	-0.05102179
251	0x28	0.11338175
252	0xf2	-0.039683614
253	0xb1	-0.22392896
254	0x36	0.15306537
255	0x42	0.18707989
