model.tflite (tflite, 92328 bytes, 6 tensors)

arith.constant f4 [128]
0	0x3cac2523	0.021013802
1	0xbc25527c	-0.010090467
2	0x3c011f6d	0.007881028
3	0x3d25e095	0.04049738
4	0x3da7ae55	0.08187548
5	0xbbb456ab	-0.0055034957
6	0x3c0d3cae	0.008620424
7	0x3d3d1379	0.04616115
8	0x3d26c6d4	0.04071696
9	0x3cc34ff8	0.023841843
10	0x3c5c7f14	0.013458032
11	0x3b801ba2	0.003909544
12	0x3d032ca0	0.03202498
13	0x3d7d3be0	0.06182468
14	0xbbde4ac2	-0.006783814
15	0x3d2722d1	0.040804688
16	0x3cc432fe	0.023950096
17	0x3d7a7eb6	0.061155997
18	0x3d0ca98f	0.03434139
19	0x3d42a5f3	0.047521543
20	0xbc1df315	-0.009640475
21	0x3d3252b0	0.04353589
22	0xbbfcd00a	-0.00771523
23	0x3d3fb6a0	0.046805024
24	0x3d1e52ae	0.03865307
25	0xbc22fa18	-0.009947322
26	0x00000000	0.0
27	0x3d3a4b8d	0.045482207
28	0x3cdd6be4	0.027028985
29	0x3ceb74a6	0.028742146
30	0x3d4ae7b7	0.049537387
31	0x3d41d2b6	0.04732009
32	0xbba77f90	-0.005111642
33	0x3d0a42db	0.033755165
34	0x3d10b9b8	0.035333365
35	0x3ca62eb8	0.02028595
36	0x3cbbad93	0.022909915
37	0x3d070ed7	0.032973137
38	0x3c5a5c10	0.0133276135
39	0x3d1b9d17	0.03799161
40	0x3d5135d3	0.05107672
41	0x3d806169	0.062685795
42	0x3d204443	0.0391276
43	0x3d0d8704	0.03455259
44	0x3d333c38	0.0437586
45	0x3d00922a	0.031389393
46	0x3d1147dd	0.035468925
47	0x3d10c514	0.0353442
48	0x3d2ae945	0.04172637
49	0xbba343af	-0.0049824337
50	0x3c94b7b8	0.01815401
51	0x3d4982c9	0.049196992
52	0x3d427e47	0.04748371
53	0xbbd2ca5f	-0.006432816
54	0x3c8db486	0.017297994
55	0x3d36a474	0.04459043
56	0x3cec43c5	0.028840909
57	0xbc126aa4	-0.008936558
58	0x3d29de5d	0.041471828
59	0x3d0cef5e	0.034407966
60	0x3cf31f10	0.029677898
61	0x3d9fc653	0.07801499
62	0x3d039a35	0.032129485
63	0xbbab458b	-0.005226796
64	0xbc4bf1cf	-0.012447788
65	0x3d238997	0.039926138
66	0x3cd0e7a3	0.025501078
67	0x3ce8cf39	0.028419124
68	0x3d71b4f8	0.059010476
69	0x3cd2d938	0.025738344
70	0x3d063d38	0.032773226
71	0xbbaf1394	-0.00534291
72	0xbbaf1d24	-0.00534405
73	0xbc2a70e1	-0.010402889
74	0x3d60f271	0.05491871
75	0x3d1aa07d	0.03775071
76	0x3d191089	0.037369285
77	0xbbad2760	-0.005284235
78	0x3cca82d1	0.024720581
79	0x3d2c63f3	0.042087507
80	0x3cfad7df	0.030620513
81	0x00000000	0.0
82	0xbc3d69b6	-0.011560848
83	0x3d61129d	0.05494939
84	0x3cc861ea	0.024460752
85	0x3d25584a	0.040367402
86	0xbbc4a9e5	-0.0060016983
87	0x3ce3819d	0.027771765
88	0x3cbef2b5	0.023309091
89	0xbc7c45e8	-0.015397526
90	0x3d34d211	0.044145647
91	0x3d3d6fce	0.046249203
92	0x3d7cdd6e	0.06173461
93	0x3d4c77c7	0.049918916
94	0x3d554aa8	0.05207315
95	0x3d5167f2	0.05112452
96	0x3c782cb2	0.015147375
97	0x3d2ccb4d	0.04218607
98	0x00000000	0.0
99	0x3d1ea8e4	0.038735285
100	0xbc547a18	-0.012968563
101	0xbc309ecf	-0.01078005
102	0x3c4fccca	0.012683103
103	0x3c85937e	0.016305681
104	0x3d330c99	0.043713186
105	0x3cc0c87f	0.023533104
106	0xbba76422	-0.0051083723
107	0x3d630e13	0.055433344
108	0xbc4dde09	-0.012565144
109	0x3cccec36	0.025014978
110	0x3ce3f344	0.027825959
111	0xbc464e84	-0.0121036805
112	0x3d3b484c	0.045723245
113	0xbbbc8742	-0.0057534287
114	0x3d13b10a	0.03605751
115	0xbbbca28f	-0.005756683
116	0x3d4c3911	0.04985911
117	0x3d332b64	0.043742552
118	0x3d87f90d	0.066392995
119	0xbc200367	-0.009766436
120	0xbbf2cd75	-0.0074097463
121	0x3d20f0eb	0.039292257
122	0x3d55d558	0.052205414
123	0x3cf83143	0.030296927
124	0x3d5f37ed	0.054496694
125	0x3ca53a47	0.02016939
126	0x3c66d116	0.014087936
127	0x3cc790b5	0.024360994

arith.constant1 f4 [64]
0	0x3ce513e2	0.027963582
1	0x3cc544b2	0.024080608
2	0x3ce461ed	0.027878726
3	0x00000000	0.0
4	0x3c6f9f8d	0.014625442
5	0x3cd9aa26	0.02657039
6	0x3c1b6483	0.009484413
7	0x3d0f35a7	0.034963276
8	0xbc4b32bc	-0.012402233
9	0x3cb99920	0.022656024
10	0x00000000	0.0
11	0xbc16962c	-0.009191077
12	0x3d14e8f1	0.036354963
13	0xbbe6351d	-0.0070253746
14	0xbc176e75	-0.009242644
15	0x3cb4652f	0.022020904
16	0x3c201071	0.009769545
17	0x3bf79ede	0.0075567802
18	0x3d19d38e	0.03755527
19	0x3c9f8dda	0.01947682
20	0x3c28b326	0.010296619
21	0x3c4a74ac	0.012356918
22	0x3d0f0e24	0.034925595
23	0x3acfcba2	0.0015853534
24	0x3cf86145	0.03031982
25	0x3d3796f3	0.04482169
26	0x3c6c97df	0.014440506
27	0x3cde401f	0.027130185
28	0x3d194e61	0.037428264
29	0x3ce2ad23	0.027670449
30	0x3cbb77ca	0.022884268
31	0x3bd123c1	0.006382436
32	0x3d6482c9	0.05578879
33	0x3c51bcdd	0.012801376
34	0xbc6c87c1	-0.014436663
35	0xbca71bf5	-0.020399073
36	0xbbd36897	-0.006451677
37	0xbbaf3132	-0.0053464407
38	0x3d0a8743	0.033820402
39	0x3d08d34e	0.03340464
40	0x3d17c206	0.03705027
41	0x3d295d26	0.0413486
42	0x3ca6ee5d	0.020377332
43	0x3c741f32	0.014900016
44	0x00000000	0.0
45	0x3c2cfde1	0.010558576
46	0x3c673968	0.014112808
47	0x3c68020f	0.014160647
48	0x3c86ad5f	0.016440092
49	0x3b9d87ed	0.0048074634
50	0x3ce654ff	0.028116701
51	0x3d528eda	0.051405765
52	0x3cddcdc7	0.027075661
53	0xbcb2d072	-0.02182791
54	0x3d60bc89	0.0548673
55	0x3ca9bb24	0.020719118
56	0x397d1bd4	0.00024138327
57	0x3d002a33	0.031290244
58	0x3cdbe237	0.026841266
59	0x3ce5af38	0.028037652
60	0x3d1337fc	0.035942063
61	0x3d2d9c73	0.04238553
62	0x3ceeaa34	0.029133894
63	0x3c0260f7	0.0079576885

arith.constant2 f4 [8]
0	0x3b504431	0.0031778926
1	0xbc516cbe	-0.012782274
2	0xbc3d6bab	-0.011561315
3	0xbc851464	-0.016245075
4	0xbaa91cb6	-0.0012902233
5	0x3c9ddcc5	0.01927031
6	0x3c06846d	0.008210284
7	0xbabd96d2	-0.0014464504

arith.constant3 f4 [8, 64]
0	0xbe3a0b46	-0.18168363
1	0x3d70afaa	0.058761276
2	0x3cc34166	0.023834895
3	0x3e0b6e04	0.13616186
4	0xbbf9c511	-0.007622369
5	0xbba07878	-0.0048971735
6	0xbdd12dec	-0.10213837
7	0xbe163f35	-0.14672549
8	0x3bf078ed	0.007338634
9	0xbe9c21c0	-0.304945
10	0xbe0f8a86	-0.14017686
11	0xbe89d651	-0.26921323
12	0xbe9f60c7	-0.31128523
13	0xbdb7b205	-0.089695014
14	0x3e501ac7	0.20322715
15	0xbc63dd35	-0.01390772
16	0x3e23fa95	0.16013558
17	0xbe015b08	-0.12632382
18	0xbe8c5430	-0.2740798
19	0xbe92824b	-0.2861503
20	0xbd2e885e	-0.04261052
21	0x3d21adff	0.039472576
22	0x3e919bdb	0.2843922
23	0x3e52bd0f	0.20579933
24	0xbdfcf994	-0.12352291
25	0xbe8451a5	-0.2584354
26	0xbeb9b597	-0.36271355
27	0xbee95fd2	-0.45580918
28	0x3eac5d21	0.33664802
29	0x3e70a262	0.23499444
30	0xbccfe4f3	-0.025377726
31	0x3e80f0ff	0.25183865
32	0xbd703d97	-0.058652487
33	0xbedb74de	-0.428626
34	0x3e32deb8	0.17467773
35	0x3e7350c7	0.23761283
36	0x3e8e596f	0.27802607
37	0xbe8472ef	-0.25868937
38	0x3da740ea	0.08166678
39	0xbddbc2a8	-0.10730487
40	0xbe33e5c4	-0.17568117
41	0x3e1fa101	0.15588762
42	0xbec81c5f	-0.39084145
43	0xbdcb6e24	-0.09933117
44	0x3e1c4540	0.15260792
45	0xbec84342	-0.39113814
46	0xbbb7efb8	-0.0056132935
47	0x3e1f1cad	0.15538283
48	0x3e8d8cec	0.27646577
49	0xbe208694	-0.15676337
50	0x3e4efb70	0.20213103
51	0x3da99d79	0.08281989
52	0x3e73c842	0.23806861
53	0x3dbafbae	0.09130035
54	0x3d497bdb	0.049190383
55	0xbe0ece84	-0.13945967
56	0xbea35321	-0.3189936
57	0x3dcae8d7	0.09907692
58	0x3eb28fd1	0.34875348
59	0x3ea1f429	0.31631592
60	0x3de96a42	0.1139722
61	0xbdfb6d52	-0.122767106
62	0x3e4d036d	0.20020838
63	0x3e8e2420	0.27761936
64	0xbe179d56	-0.14806113
65	0xbe1ebbc1	-0.1550131
66	0xbe2610b7	-0.16217314
67	0x3dffe610	0.12495053
68	0x3e168d20	0.14702272
69	0x3e363338	0.17792976
70	0xbdda9558	-0.10673016
71	0xbcc1aaa3	-0.023640936
72	0x3e497ae7	0.1967579
73	0x3eba9aab	0.36446127
74	0x3ddec6a0	0.108777285
75	0xbe0b9bba	-0.13633624
76	0xbec868ff	-0.39142606
77	0x3ebf2942	0.37336165
78	0xbe56b22d	-0.20966406
79	0x3e9b5cc3	0.3034421
80	0xbead877e	-0.33892435
81	0x3d71e578	0.05905673
82	0xbe842fdb	-0.2581776
83	0x3ea0a7b3	0.31377944
84	0x3ead5638	0.33854842
85	0xbecf0211	-0.40431264
86	0x3e704d32	0.23466948
87	0xbdab4387	-0.08362489
88	0xbd0a914d	-0.033829976
89	0xbee82967	-0.45344087
90	0x3e8fd6bb	0.28093514
91	0x3eab84a5	0.33499637
92	0xbe90ca10	-0.2827916
93	0x3d8c2b42	0.06844188
94	0xbd0d0ecd	-0.034437943
95	0x3e99af3b	0.30016503
96	0xbeb1c7d7	-0.34722778
97	0xbe27975d	-0.16366334
98	0x3e89c1eb	0.2690576
99	0x3e3b0ad1	0.18265845
100	0x3ccfd405	0.025369653
101	0xbe336dda	-0.17522374
102	0x3e09f629	0.13472809
103	0xbebc0122	-0.36719614
104	0xbe4d8266	-0.20069274
105	0xbe99dd2f	-0.30051562
106	0x3e9f172b	0.31072363
107	0x3e0c4f59	0.13702144
108	0xbc3a6c60	-0.011378378
109	0x3e64b405	0.22334297
110	0xbeb489bf	-0.35261342
111	0xbd7d3820	-0.061821103
112	0x3e786747	0.24258147
113	0x3d1c872f	0.03821486
114	0x3e3b8928	0.1831404
115	0x3e1c3fe2	0.15258744
116	0xbe45ed3f	-0.19328783
117	0xbe2de074	-0.16980153
118	0xbed6f256	-0.41981763
119	0xbe54a923	-0.20767646
120	0x3e9c3b81	0.30514148
121	0xbddcff3d	-0.1079087
122	0xbd8c2f83	-0.06845
123	0xbe706dbb	-0.23479359
124	0xbebbbb51	-0.3666635
125	0xbe3910c9	-0.1807281
126	0x3e79d374	0.24397069
127	0xbe8395ed	-0.25700322
128	0x3daa0382	0.0830145
129	0x3e500eaa	0.20318094
130	0x3d74ae0e	0.059736304
131	0xbe2186cd	-0.15774079
132	0xbe61835b	-0.22022764
133	0xbedc2a34	-0.43000948
134	0x3e6db9bd	0.23215385
135	0x3d5f067b	0.05444954
136	0x3e19de4a	0.15026203
137	0xbea2c512	-0.31790978
138	0xbe1cf6d2	-0.1532853
139	0xbded9283	-0.116002105
140	0x3e4d6eeb	0.20061843
141	0xbc8ebb03	-0.017423159
142	0xbe20ab86	-0.15690431
143	0xbe9cc8f5	-0.30622068
144	0xbe89262e	-0.2678694
145	0x3e2385b2	0.1596897
146	0xbea5ae83	-0.32359704
147	0x3d948846	0.072525546
148	0x3e94ee80	0.2908821
149	0x3e1694aa	0.14705148
150	0xbdeb87ee	-0.11500536
151	0xbe96b024	-0.2943126
152	0xbd7e94fe	-0.06215381
153	0xbe2d8ed6	-0.16949019
154	0x3de3eb82	0.11128904
155	0x3eb0a5a3	0.3450137
156	0xbe99eee4	-0.30065072
157	0xbe2db2fa	-0.16962805
158	0x3de5d803	0.112228416
159	0x3e7e34ea	0.24824873
160	0xbece1830	-0.4025283
161	0xbe1d86ba	-0.15383425
162	0x3da78db5	0.08181325
163	0xbb719996	-0.0036865226
164	0x3e53e259	0.20691814
165	0xbe87f68d	-0.2655529
166	0x3dd13fe7	0.102172665
167	0x3e862a15	0.2620398
168	0xbebdef5e	-0.37096685
169	0x3e06d6b2	0.13167837
170	0x3e17d182	0.14826015
171	0xbee53730	-0.44768667
172	0xbc78e940	-0.01519233
173	0x3df1c222	0.11804606
174	0xbe8e5478	-0.2779882
175	0x3e75e76f	0.24014066
176	0x3d6c176b	0.05763952
177	0x3e91a86f	0.28448817
178	0xbea262fa	-0.31716138
179	0x3ea466c3	0.3210965
180	0x3e9225f5	0.28544584
181	0xbe84fbde	-0.2597341
182	0xbe9629b8	-0.29328704
183	0x3d475d0c	0.04867272
184	0x3e93cebb	0.2886866
185	0x3e46120e	0.19342825
186	0xbede995f	-0.43476388
187	0xbe2a982b	-0.1665961
188	0xbeafe377	-0.3435323
189	0x3e597fc2	0.21240142
190	0xbed0bc42	-0.4076863
191	0x3e217f46	0.15771207
192	0x3e8ac616	0.27104253
193	0xbc486c23	-0.012232813
194	0x3ded7f95	0.115966
195	0xbe40573a	-0.18783274
196	0x3d92c7f9	0.07167048
197	0x3de81c3d	0.11333511
198	0xbe24b42f	-0.1608436
199	0x3e5a57cb	0.21322553
200	0x3c0c0ad5	0.008547504
201	0xbe8cfe64	-0.27537835
202	0xbd9e7498	-0.07737082
203	0xbe00d2ad	-0.12580366
204	0xbee510e8	-0.4473946
205	0xbea3b3b8	-0.31973052
206	0xbde1046d	-0.10987172
207	0x3e6d2f5a	0.23162594
208	0x3d243ced	0.040097166
209	0x3e89e107	0.26929495
210	0xbed1e8c6	-0.40997905
211	0xbd92e334	-0.07172242
212	0x3e59055a	0.21193448
213	0xbe5d56b5	-0.21615107
214	0x3e64e93c	0.22354597
215	0x3ea96922	0.33088022
216	0xbcfa0b4d	-0.030522967
217	0xbed80b23	-0.42195997
218	0xbdf7ea3b	-0.12105223
219	0x3d0384a2	0.03210891
220	0xbed9c31f	-0.42531678
221	0x3e341dbb	0.17589466
222	0x3da17f2a	0.07885583
223	0xbde9a137	-0.114077024
224	0xbedc6dbe	-0.43052477
225	0xbe3a3828	-0.18185484
226	0xbe693862	-0.22775415
227	0x3e79a3f5	0.24378951
228	0x3d76ac2a	0.060222782
229	0x3e820ce0	0.25400448
230	0x3e60103d	0.21881194
231	0x3b97894a	0.0046245204
232	0xbef51624	-0.47868454
233	0x3e96fb32	0.29488522
234	0xbd9aef3c	-0.075651616
235	0xbd9dd547	-0.07706695
236	0xbd6ca1d4	-0.05777152
237	0xbeb73495	-0.35782304
238	0xbe6db5f7	-0.23213945
239	0x3e3d7b09	0.18503965
240	0x3e7b6b3c	0.24552625
241	0xbbf1bccf	-0.007377244
242	0xbe2f84fe	-0.17140576
243	0x3d00c143	0.03143431
244	0xbda15454	-0.078774124
245	0x3e5002bb	0.20313542
246	0xbeef44cd	-0.46732178
247	0xbe2708e4	-0.16311985
248	0xbe5190a4	-0.20465332
249	0xbc86cbb9	-0.016454564
250	0x3e6e06fb	0.2324485
251	0x3e8535c5	0.26017585
252	0x3ea96bb4	0.33089983
253	0x3deef84c	0.116684526
254	0xbedc9360	-0.43081188
255	0xbcb2107e	-0.02173638

tfl.pseudo_qconst i1 [64, 128]
0	0xe5	-27
1	0xb3	-77
2	0x14	20
3	0x60	96
4	0x3d	61
5	0xc2	-62
6	0x0a	10
7	0x6f	111
8	0x0f	15
9	0x22	34
10	0x2e	46
11	0x40	64
12	0xec	-20
13	0x19	25
14	0xfd	-3
15	0x53	83
16	0x30	48
17	0x50	80
18	0xb9	-71
19	0x5a	90
20	0x3c	60
21	0xda	-38
22	0xe2	-30
23	0x1e	30
24	0x3b	59
25	0xf2	-14
26	0xf1	-15
27	0xdd	-35
28	0xf2	-14
29	0xb0	-80
30	0xc5	-59
31	0x62	98
32	0x27	39
33	0x45	69
34	0xfc	-4
35	0xcf	-49
36	0x7c	124
37	0x53	83
38	0x57	87
39	0x06	6
40	0xc7	-57
41	0x37	55
42	0xf5	-11
43	0xee	-18
44	0x13	19
45	0x21	33
46	0xe4	-28
47	0x31	49
48	0x45	69
49	0xc6	-58
50	0xab	-85
51	0xec	-20
52	0x72	114
53	0x0a	10
54	0x44	68
55	0x36	54
56	0x48	72
57	0xe7	-25
58	0x39	57
59	0xd6	-42
60	0x11	17
61	0xc4	-60
62	0xf0	-16
63	0xfd	-3
64	0x16	22
65	0x9f	-97
66	0x6b	107
67	0x1e	30
68	0xc4	-60
69	0x27	39
70	0x5d	93
71	0x14	20
72	0x10	16
73	0xf4	-12
74	0x12	18
75	0xff	-1
76	0xfc	-4
77	0xbd	-67
78	0x42	66
79	0x0a	10
80	0xbb	-69
81	0x52	82
82	0xef	-17
83	0x2d	45
84	0x7f	127
85	0xd2	-46
86	0x39	57
87	0x30	48
88	0x5e	94
89	0x30	48
90	0x14	20
91	0x50	80
92	0xe3	-29
93	0x26	38
94	0x39	57
95	0x75	117
96	0x1a	26
97	0xb9	-71
98	0x3c	60
99	0x09	9
100	0x00	0
101	0xb6	-74
102	0xe7	-25
103	0xd7	-41
104	0xa8	-88
105	0xf0	-16
106	0x09	9
107	0xf0	-16
108	0xf7	-9
109	0x43	67
110	0xb9	-71
111	0x29	41
112	0x57	87
113	0xdf	-33
114	0x41	65
115	0x30	48
116	0x3f	63
117	0x2c	44
118	0x50	80
119	0x39	57
120	0xe3	-29
121	0x40	64
122	0x6a	106
123	0x26	38
124	0xfe	-2
125	0xb0	-80
126	0xe6	-26
127	0xb5	-75
128	0x7a	122
129	0x1d	29
130	0x93	-109
131	0x3c	60
132	0x28	40
133	0x45	69
134	0xf2	-14
135	0xec	-20
136	0xeb	-21
137	0xd2	-46
138	0x03	3
139	0x77	119
140	0x33	51
141	0x72	114
142	0xbf	-65
143	0x4d	77
144	0x65	101
145	0xef	-17
146	0x66	102
147	0x4a	74
148	0xed	-19
149	0x56	86
150	0xc9	-55
151	0xe6	-26
152	0x38	56
153	0xfd	-3
154	0xd8	-40
155	0xf2	-14
156	0xe5	-27
157	0x35	53
158	0xf8	-8
159	0x3c	60
160	0x4f	79
161	0x91	-111
162	0x14	20
163	0xdd	-35
164	0x68	104
165	0xef	-17
166	0xf0	-16
167	0xed	-19
168	0x23	35
169	0x56	86
170	0x24	36
171	0xe1	-31
172	0x08	8
173	0x35	53
174	0x45	69
175	0x27	39
176	0x30	48
177	0xb7	-73
178	0x73	115
179	0x53	83
180	0x19	25
181	0x00	0
182	0x6c	108
183	0x55	85
184	0x36	54
185	0xcc	-52
186	0x38	56
187	0x35	53
188	0xf5	-11
189	0x4d	77
190	0x77	119
191	0x0c	12
192	0x18	24
193	0xe0	-32
194	0xf7	-9
195	0x17	23
196	0x70	112
197	0xbd	-67
198	0x2c	44
199	0x3f	63
200	0xde	-34
201	0x09	9
202	0x77	119
203	0x2f	47
204	0x2e	46
205	0x34	52
206	0xbb	-69
207	0x16	22
208	0xc1	-63
209	0xb6	-74
210	0x21	33
211	0x15	21
212	0x02	2
213	0x3a	58
214	0x1e	30
215	0xe0	-32
216	0x55	85
217	0x46	70
218	0x14	20
219	0xbf	-65
220	0x36	54
221	0xd1	-47
222	0x13	19
223	0x04	4
224	0x72	114
225	0x45	69
226	0x25	37
227	0xcd	-51
228	0x05	5
229	0xca	-54
230	0xc2	-62
231	0xd6	-42
232	0x4f	79
233	0x1a	26
234	0xc3	-61
235	0x51	81
236	0xed	-19
237	0xc8	-56
238	0x73	115
239	0x30	48
240	0x3f	63
241	0xbe	-66
242	0xdc	-36
243	0x39	57
244	0x0c	12
245	0x43	67
246	0xcc	-52
247	0xd8	-40
248	0x33	51
249	0xe4	-28
250	0xff	-1
251	0xcb	-53
252	0xf9	-7
253	0x7f	127
254	0xe2	-30
255	0xcf	-49

sequential_5_1/dense_17_1/MatMul i1 [128, 600]
0	0x2a	42
1	0xe8	-24
2	0xff	-1
3	0x13	19
4	0x36	54
5	0xc6	-58
6	0x28	40
7	0x38	56
8	0x0f	15
9	0x28	40
10	0x3e	62
11	0xfa	-6
12	0x4f	79
13	0x13	19
14	0xe8	-24
15	0xf7	-9
16	0x25	37
17	0xdf	-33
18	0x6a	106
19	0xee	-18
20	0x36	54
21	0x1e	30
22	0x2a	42
23	0xee	-18
24	0x57	87
25	0x33	51
26	0x24	36
27	0xf5	-11
28	0xe2	-30
29	0xfe	-2
30	0x5e	94
31	0x17	23
32	0xeb	-21
33	0x0e	14
34	0x17	23
35	0x01	1
36	0x30	48
37	0xee	-18
38	0x2b	43
39	0x24	36
40	0xe9	-23
41	0xf4	-12
42	0x4e	78
43	0x1c	28
44	0xfa	-6
45	0xf1	-15
46	0xcf	-49
47	0x05	5
48	0x5d	93
49	0x06	6
50	0xea	-22
51	0x09	9
52	0xec	-20
53	0x11	17
54	0x3d	61
55	0xf6	-10
56	0xfb	-5
57	0xeb	-21
58	0xe8	-24
59	0x11	17
60	0x34	52
61	0x0b	11
62	0x2d	45
63	0xf1	-15
64	0xe2	-30
65	0xfe	-2
66	0x2c	44
67	0xf6	-10
68	0xdf	-33
69	0x18	24
70	0xf0	-16
71	0xca	-54
72	0x7d	125
73	0x25	37
74	0xf0	-16
75	0x10	16
76	0xe7	-25
77	0xc0	-64
78	0x51	81
79	0xfa	-6
80	0x1b	27
81	0x17	23
82	0x04	4
83	0xed	-19
84	0x37	55
85	0xff	-1
86	0x13	19
87	0x3e	62
88	0xe5	-27
89	0xa8	-88
90	0x4c	76
91	0x00	0
92	0x14	20
93	0xfe	-2
94	0xf8	-8
95	0xec	-20
96	0x53	83
97	0x21	33
98	0xe1	-31
99	0x18	24
100	0xfb	-5
101	0xae	-82
102	0x46	70
103	0xf6	-10
104	0xe2	-30
105	0x36	54
106	0xda	-38
107	0xdd	-35
108	0x59	89
109	0x1b	27
110	0x10	16
111	0x36	54
112	0x9f	-97
113	0xb0	-80
114	0x41	65
115	0x1c	28
116	0x23	35
117	0x42	66
118	0xb2	-78
119	0xb9	-71
120	0x75	117
121	0xe9	-23
122	0xdf	-33
123	0x32	50
124	0xb5	-75
125	0xbf	-65
126	0x36	54
127	0x02	2
128	0x22	34
129	0x22	34
130	0xa7	-89
131	0xc0	-64
132	0x29	41
133	0x10	16
134	0xf8	-8
135	0x2c	44
136	0xcd	-51
137	0xd5	-43
138	0x32	50
139	0xfa	-6
140	0xe7	-25
141	0x57	87
142	0xed	-19
143	0x95	-107
144	0x0e	14
145	0xe1	-31
146	0x07	7
147	0x48	72
148	0xc0	-64
149	0xb7	-73
150	0x34	52
151	0x00	0
152	0x03	3
153	0x0d	13
154	0xb4	-76
155	0xcd	-51
156	0x1f	31
157	0x1c	28
158	0x1c	28
159	0x1c	28
160	0xc8	-56
161	0xcc	-52
162	0x27	39
163	0xdf	-33
164	0x09	9
165	0x40	64
166	0xa1	-95
167	0xd0	-48
168	0x09	9
169	0xfe	-2
170	0x07	7
171	0x26	38
172	0x98	-104
173	0xb8	-72
174	0xde	-34
175	0xee	-18
176	0x24	36
177	0x16	22
178	0xc3	-61
179	0xc6	-58
180	0xfd	-3
181	0x1d	29
182	0x37	55
183	0xf4	-12
184	0xca	-54
185	0xc7	-57
186	0xfb	-5
187	0xe1	-31
188	0xff	-1
189	0x2d	45
190	0xbb	-69
191	0xb2	-78
192	0xbd	-67
193	0x0a	10
194	0x27	39
195	0xf5	-11
196	0xbe	-66
197	0xb4	-76
198	0xc2	-62
199	0x0b	11
200	0x30	48
201	0x03	3
202	0xbe	-66
203	0xd1	-47
204	0xb4	-76
205	0x2a	42
206	0x2d	45
207	0x30	48
208	0x94	-108
209	0xd8	-40
210	0xe9	-23
211	0x02	2
212	0x00	0
213	0x0e	14
214	0xb3	-77
215	0xd1	-47
216	0xab	-85
217	0x2f	47
218	0xf0	-16
219	0x0a	10
220	0xa3	-93
221	0x9c	-100
222	0xcf	-49
223	0x05	5
224	0xf3	-13
225	0xf4	-12
226	0xa2	-94
227	0x9a	-102
228	0xd4	-44
229	0xf0	-16
230	0x0d	13
231	0xee	-18
232	0x89	-119
233	0xa4	-92
234	0xe2	-30
235	0x10	16
236	0x23	35
237	0x08	8
238	0x9a	-102
239	0x9a	-102
240	0xe4	-28
241	0xf5	-11
242	0x04	4
243	0x31	49
244	0xc9	-55
245	0x96	-106
246	0xe6	-26
247	0x0e	14
248	0x22	34
249	0x1b	27
250	0x8b	-117
251	0xbf	-65
252	0xd3	-45
253	0x37	55
254	0xe7	-25
255	0xe2	-30
